…
localhost:8080/"},"id":"nETWi21OhHKy","executionInfo":{"status":"ok","timestamp":1697478290408,"user_tz":-120,"elapsed":275,"user":{"displayName":"Carmen Bartolomé","userId":"02406313301942165558"}},"outputId":"cfa23a48-43a7-4688-a792-c269eb059e4c"},"execution_count":null,"outputs":[{"output_type":"stream","name":"stdout","text":["Model: \"sequential_5\"\n","_________________________________________________________________\n"," Layer (type)                Output Shape              Param #   \n","=================================================================\n"," conv2d_4 (Conv2D)           (None, 26, 26, 28)        280       \n","                                                                 \n"," max_pooling2d_4 (MaxPoolin  (None, 13, 13, 28)        0         \n"," g2D)                                                            \n","                                                                 \n"," flatten_4 (Flatten)         (None, 4732)              0         \n","                                                                 \n"," dense_12 (Dense)            (None, 128)               605824    \n","                                                                 \n"," dropout_8 (Dropout)         (None, 128)               0         \n","                                                                 \n"," dense_13 (Dense)            (None, 70)                9030      \n","                                                                 \n"," dropout_9 (Dropout)         (None, 70)                0         \n","                                                                 \n"," dense_14 (Dense)            (None, 10)                710       \n","                                                                 \n","=================================================================\n","Total params: 615844 (2.35 MB)\n","Trainable params: 615844 (2.35 MB)\n","Non-trainable params: 0 (0.00 Byte)\n","_________________________________________________________________\n"]}]},{"cell_type":"code","source":["model_conv.compile(optimizer='
…
